MLModelCreationClasses/Model files/NNModel_20250327_030847.pth (torch, 4776 bytes, 5 tensors)

weight f4 [3, 10]
000000 2b 6c 75 3e 1d 4e 3f bc 55 9c 54 3f 7a 5a 9e bd
       0.23967044 -0.0116763385 0.83051044 -0.07732101
000010 66 f1 ef bc 0c 33 50 be 48 d8 37 bb 59 e2 84 be
       -0.029289912 -0.20331973 -0.0028052498 -0.2595394
000020 91 38 b1 3c 56 18 0f 3e 46 c7 bf bd 98 4a ec bb
       0.021633418 0.13974127 -0.0936418 -0.0072110407
000030 e7 c9 38 bf 72 ed 2d be 48 6e 21 3d ac 9d 88 bd
       -0.7218308 -0.1698511 0.039411813 -0.066706985
000040 03 fd 71 be de f5 be 3d 7e f1 a7 bd 54 17 bd bd
       -0.23631673 0.09324239 -0.08200358 -0.09232965
000050 f3 08 2a bd 67 0a b8 bd 63 08 ce 3e 8a 99 99 bb
       -0.04151244 -0.08986359 0.40240774 -0.0046874927
000060 20 df 1e 3e 22 c1 64 3d 95 ca 64 be 2c ab 0a 3d
       0.15514803 0.05584825 -0.22342904 0.03385465
000070 1a e3 0a 3e b2 33 49 3e
       0.13563195 0.19648626

bias f4 [3]
000000 56 56 d8 3e 4e d2 b8 bc 5e d3 e9 bd
       0.4225337 -0.022561219 -0.11417268

weight f4 [2, 3]
000000 d5 18 e4 3e 4a 00 08 bf 5c 3e eb 3e e6 63 87 3f
       0.44550195 -0.5312544 0.45946014 1.0577362
000010 ca a6 d5 be f3 db aa be
       -0.41728812 -0.33370933

bias f4 [2]
000000 f0 2b a7 3e 5b 56 c0 3d
       0.3265071 0.09391471

weight f4 [1, 2]
000000 52 d5 05 3f ed 60 15 3f
       0.52278626 0.5835102
