MLModelCreationClasses/NNModel_20250325_222016.pth (torch, 5864 bytes, 5 tensors)

weight f4 [8, 30]
000000 ba 12 25 be df 59 5e be a6 f4 92 bd 0e de 57 be
       -0.16120425 -0.2171397 -0.07175569 -0.21080801
000010 1d 74 99 3e a8 d6 9a bd 32 53 91 be 2d 55 c6 3c
       0.299714 -0.07560474 -0.28383785 0.024210537
000020 b0 1f 25 3e f2 90 e0 bd c8 e8 03 be e6 48 94 3e
       0.16125369 -0.10965146 -0.12881768 0.28961867
000030 35 43 0d be 95 f1 de bd d5 14 84 bd ca 3f 71 bd
       -0.13795169 -0.10885922 -0.06449286 -0.058898725
000040 e4 8b a5 bd 6f 41 3b bd 04 7e 27 bd 60 b0 2a 3e
       -0.08083323 -0.0457167 -0.040891662 0.16668844
000050 89 b8 78 3e bb a2 e6 bd b2 b4 94 bd 6b 56 c1 bd
       0.24289145 -0.11261507 -0.072610274 -0.09440311
000060 60 11 5c be 53 eb d7 3d c4 0c 8e 3d 52 f4 17 3d
       -0.21491003 0.105429314 0.069360286 0.037098236
000070 4c b9 09 be a6 f4 c1 3d 43 f6 04 3e 7e 54 55 be
       -0.13449591 0.09470491 0.12984566 -0.20833012
000080 c1 8e 37 3d ab 93 36 3c 35 54 64 3e e3 0d 38 3e
       0.044813875 0.011143605 0.22297747 0.17974047
000090 fc 4b 8b bd 0f 2a e0 3d da 5e 37 3c 52 4e ec 3d
       -0.06801602 0.10945522 0.011192048 0.11538376
0000a0 74 03 a6 bc e5 69 02 3d 94 77 21 be c1 db 15 bb
       -0.020265318 0.03183927 -0.15768272 -0.002286658
0000b0 bc 3b 74 3d a6 05 c0 3d cd b2 48 be 9f 11 44 bc
       0.05962728 0.09376077 -0.19599457 -0.011967092
0000c0 24 da aa bc b4 89 10 3e 69 22 c1 bc 13 ee 65 bc
       -0.02085597 0.1411503 -0.023575978 -0.014033812
0000d0 1e 9d 16 3e 08 ca 0c be 04 56 d7 3d 49 cf 08 be
       0.14708373 -0.13748944 0.10514453 -0.13360323
0000e0 54 a4 a2 bd a9 ad ae bd ec 2a 2a 3e d9 3a d1 bc
       -0.07941499 -0.08529217 0.16617936 -0.025540756
0000f0 c4 ff 45 bd 54 30 85 3e c9 5c 86 be c8 43 90 3e
       -0.04833962 0.26013434 -0.26242664 0.28176713
000100 6e 4b d4 bd f2 8b 93 3d c4 b6 73 3e ff 4e 22 3c
       -0.103659496 0.07204427 0.23800188 0.009906529
000110 02 50 a0 bd a4 b0 1a 3d 14 3a 3c 3e 5a dd 06 be
       -0.0782776 0.037766114 0.1838153 -0.13170376
000120 ee e0 4b 3e 03 7a a5 3d 4f 7f 90 3e 60 bc 8f bd
       0.19910023 0.080799125 0.2822213 -0.070183516
000130 b4 f3 b2 3d 1a c4 6f 3e 39 54 6c 3e 7b ee 9d 3d
       0.08737889 0.2341465 0.23079003 0.07711502
000140 53 25 8d 3d 2f 9c 14 bc 97 11 5e 3d d2 85 16 3d
       0.06891885 -0.00907044 0.054215994 0.036748715
000150 b3 29 b4 bd 3e a0 c5 bc 5e 15 e5 bc 64 bc e9 bd
       -0.08797016 -0.024124261 -0.02796429 -0.11412886
000160 b2 11 58 bd 7d 76 af 3b 03 ca 0d bd 2e 16 d7 bd
       -0.05275125 0.005354701 -0.03461648 -0.10502277
000170 43 2f 12 3e 67 64 2b bd 60 c2 45 3e 19 53 6f be
       0.14275841 -0.041843798 0.1931243 -0.23371543
000180 b8 63 ac 3d f7 92 ee bd 94 8d 91 3a d1 10 9b bb
       0.08417457 -0.11649125 0.0011104816 -0.0047322293
000190 cf d4 86 be 8e a9 27 3e a8 33 d8 bd 41 db bb bd
       -0.26334235 0.16373274 -0.10556728 -0.09172679
0001a0 4b 59 bb bc e1 04 a2 bd 9b de 2a 3c f0 cc 69 be
       -0.022869727 -0.07911087 0.01042905 -0.22832084
0001b0 58 53 27 3d 1c 02 89 3c 80 be 6c 3e 43 8f 0c be
       0.040850967 0.016724639 0.23119545 -0.13726525
0001c0 31 0f 0c bd f1 dc 33 be 8a bd cd bd b4 9e 06 bd
       -0.034194175 -0.17564751 -0.10045917 -0.032866195
0001d0 05 b5 05 be 10 c5 d5 3d fa 88 1b be bc 68 5f 3e
       -0.13057335 0.10437977 -0.15188971 0.21817297
0001e0 49 5e 01 bc b0 8b c7 bd 5b 71 24 be a9 79 f3 bb
       -0.0078960145 -0.0974344 -0.16058867 -0.0074302745
0001f0 50 c9 25 3d 64 c8 c4 bd b7 a7 52 3e f9 9d b2 bd
       0.04047519 -0.09608534 0.2057179 -0.08721537
000200 68 48 b4 3d 7e 81 f0 bd c9 dc 1f 3e 7d 14 c4 3d
       0.08802873 -0.11743449 0.15611567 0.0957422
000210 e0 98 2e 3e 20 9b 4d 3d b3 3f f0 bd f5 93 cb bd
       0.17050505 0.050196767 -0.117309 -0.0994033
000220 5b c0 9f bd 03 1a 47 3e a6 75 ef 3d 3b 36 2a be
       -0.07800361 0.19443516 0.116923615 -0.1662225
000230 ab f0 4c 3d 30 3c da 3b 36 30 91 bd 79 1e 37 be
       0.050034206 0.006660007 -0.07089274 -0.17882718
000240 d0 e2 3f 3d 2a 60 08 be 63 da d5 3c df 05 82 3c
       0.046847165 -0.13317934 0.026105111 0.01587194
000250 5e 73 dd bd 16 9d 13 3e 2a a1 42 3e f6 4a df 3c
       -0.1081302 0.14415392 0.19006792 0.027257424
000260 d3 35 89 3d 8a 38 21 be 7e e5 3c 3e 29 29 48 be
       0.06699719 -0.15744224 0.1844692 -0.19546951
000270 c4 31 67 bd 1f 5d 74 be 5a 44 b4 3c ca c9 f3 bd
       -0.056443945 -0.23863648 0.022005249 -0.119037226
000280 e5 39 a0 bd eb aa bd 3d c2 dd 31 be 90 0d 4f 3c
       -0.078235425 0.09261116 -0.1736975 0.012637511
000290 6a 99 15 be 1f 36 be 3d fe 3d 9f bd 36 5b f2 bc
       -0.14609304 0.092876665 -0.07775496 -0.029584508
0002a0 26 37 e1 3d 19 2d 0c be 00 18 bf 3d 6c bc 8e 3e
       0.10996847 -0.13689078 0.093307495 0.2787813
0002b0 5f 24 88 be 9c 0d 43 3b 17 a1 56 be b1 27 08 3e
       -0.2659025 0.002976275 -0.20959888 0.13296391
0002c0 45 87 87 3c 5e a7 fe bd 0d de 8c bd 8a 95 75 be
       0.016543994 -0.124342665 -0.0687829 -0.23982826
0002d0 e0 5e 06 be a7 23 ac bd 2b 38 a2 3c 3e 18 da bd
       -0.1312213 -0.08405238 0.019802174 -0.10649155
0002e0 7d 73 8b 3d f4 4b c6 bd 5c 41 41 be cc a5 8b be
       0.06809137 -0.09682456 -0.18872589 -0.2727493
0002f0 a2 47 52 3e 67 78 78 be f9 1c 6d be dd ce 5a 3e
       0.20535138 -0.2426468 -0.23155583 0.21367975
000300 f4 bb 92 be 37 13 47 3e 2f a8 e5 bc 30 c7 49 3e
       -0.28659022 0.19440924 -0.028034298 0.1970489
000310 0c 88 6b be bb 8f bc bd 43 7d a6 bc cb ab 8b 3e
       -0.23001117 -0.09207102 -0.020323401 0.27279505
000320 94 d6 88 bd 20 27 d9 bd e6 d3 a4 bd d0 35 8b 3d
       -0.066815525 -0.106031656 -0.08048229 0.06797373
000330 92 aa 13 be 97 b6 01 3e d6 b8 f8 bc de 00 85 bd
       -0.14420536 0.12667309 -0.030361574 -0.06494306
000340 c1 9c ef 3d de bb 09 bd 48 89 ed 3d 72 23 f0 3c
       0.1169982 -0.03362643 0.1159845 0.029313777
000350 0f 17 99 3e 0f 02 00 bd e1 fc 8f 3e 16 16 ab bd
       0.29900405 -0.031251963 0.2812262 -0.08353822
000360 7b 6e 33 be 1e 24 3f 3b 5d 41 3b be 14 cc 01 be
       -0.17522614 0.0029165815 -0.18286653 -0.12675506
000370 82 cf 01 be 93 88 ef 3d 8a fa 14 be c6 98 46 be
       -0.12676814 0.11695971 -0.14548698 -0.19394216
000380 d7 17 8b bd f8 03 a4 bc ad 0f 32 3d 8f ae 29 bd
       -0.067916565 -0.020021424 0.04347198 -0.041426238
000390 26 e0 86 bd a0 8e bf 3d 48 69 3f 3e f5 f6 93 3d
       -0.06585722 0.093533754 0.18692505 0.07224838
0003a0 a0 3c e3 bc c5 a8 c0 bc 03 47 02 be 1c 91 56 3e
       -0.02773887 -0.023517976 -0.12722401 0.20953792
0003b0 20 5e c7 3d 82 08 2c 3e fa d4 45 3e ad fb ac 3d
       0.0973475 0.1680012 0.19319525 0.08446441

bias f4 [8]
000000 91 58 73 3d 1f b5 5a bd ad 19 6a 3e f8 a4 0a 3e
       0.059410635 -0.053395387 0.22861357 0.13539493
000010 47 41 41 bd 0c 9d 3c bd 86 fa 97 3e 72 41 e1 3d
       -0.047181394 -0.04604821 0.29683322 0.10998811

weight f4 [8, 8]
000000 4b 5b b2 bb c5 4c 96 3d 90 d3 25 3e 5f fc ad be
       -0.005443012 0.073388614 0.16193986 -0.33981606
000010 ce ec 21 3e 7e 00 97 be 18 56 2f be 7f 96 49 3e
       0.1581299 -0.29492563 -0.17122686 0.19686316
000020 fe a3 eb 3e f3 1f 07 be 03 18 bb bd 7e e0 9e 3e
       0.46023554 -0.13195781 -0.09135439 0.3103065
000030 fd 4e f1 bd 4a 98 d3 3d 5d b2 9e 3e ff 0a 9b 3e
       -0.11782644 0.10331781 0.30995455 0.30281827
000040 40 49 f3 3d dd 81 e0 bc f6 18 c3 3e c1 5c 9c be
       0.11879206 -0.027405674 0.3810498 -0.30539516
000050 47 af 83 3e 96 f3 7c be c0 02 1f be 3a 24 66 3e
       0.25719664 -0.24702296 -0.15528393 0.22474757
000060 31 26 b6 3b 03 b7 87 3e 6f df 99 3e b7 77 62 be
       0.005558752 0.26506814 0.3005328 -0.2211598
000070 8d be d3 bd 5b 15 6b be 63 f7 a3 be 4e 9a 9a 3b
       -0.10339079 -0.22957365 -0.3202468 0.0047181016
000080 ec 13 f4 3d c5 27 ae 3e 7f d9 3b be c1 dd a1 bd
       0.11917862 0.34014717 -0.18344687 -0.07903624
000090 f4 f9 03 3e 52 66 12 3e 15 d2 b5 bc 76 04 21 3e
       0.12888318 0.14296845 -0.022194901 0.15724358
0000a0 de e0 e6 3e 32 b2 d7 3e 0a 8f 60 be ca c7 a4 3e
       0.45093435 0.4212814 -0.21929565 0.32183677
0000b0 1a f7 6e bc a4 35 a4 3d 43 d2 ef 3d d8 22 23 3e
       -0.014585281 0.08018044 0.11710026 0.1593126
0000c0 e2 71 bb 3c eb df ad 3e 16 9a 74 be 28 83 58 be
       0.022881452 0.33959898 -0.23886904 -0.21143782
0000d0 53 d5 6a 3e a4 c4 ad 3e 7a 78 e9 bd b9 2c cd 3c
       0.22932939 0.33939087 -0.11399932 0.02504574
0000e0 6c e9 b5 3d 2b fb 39 be f1 fa 0c 3d 3c cf b2 bd
       0.08882412 -0.18162219 0.034419004 -0.08730933
0000f0 71 47 a2 3d 37 95 3b 3e 92 9d cb 3d c5 8c aa 3e
       0.079237826 0.1831864 0.099421635 0.33310524

bias f4 [8]
000000 9c 37 98 be e7 13 20 3e d1 18 fb 3d ce 14 a7 3c
       -0.29729927 0.15632592 0.12260593 0.020395663
000010 ca 0a 29 3e 68 d9 b2 3e 08 0a a2 3e 73 ef ec bd
       0.16508022 0.34931493 0.31648278 -0.11569109

weight f4 [1, 8]
000000 50 38 06 3e 75 1d ed 3e f6 fb 58 be f1 6b 32 be
       0.13107419 0.46311536 -0.21189865 -0.17423989
000010 37 a8 80 3e c3 25 22 3e 5c 2d 71 3e 27 2d 14 3e
       0.25128338 0.15834717 0.2355246 0.14470349
