MLModelCreationClasses/NNModel_20250325_163059.pth (torch, 5928 bytes, 5 tensors)

weight f4 [8, 30]
00000000: bcbc 1d3e d880 aebd e5f0 cd3d eca1 cd3c
00000010: f22d ef3d 091f 963d c99e 80bd 841c 25bd
00000020: 9a6c 3e3a 227b fa3d 5eca 213c 638c 913c
00000030: 5514 133e b194 893d 13ab 3e3e ae01 573d
00000040: c9a6 eb3d fdc9 193e 3acc d3bd 6d43 ab3d
00000050: 5494 28be 4c32 e63d c191 273e 4f80 33bd
00000060: aed1 d73d 689b 1d3e d972 1dbe 94e3 1a3e
00000070: d04b 19bd 369c 35bc ff1d a53d 0597 febd
00000080: b5d5 6d3d b4c4 02bb 9f36 273e 0cce 18be
00000090: 36b9 fcbd a72c ddbd 8a3c 923a 9adb a33d
000000a0: f939 25be 2789 9abc 75b5 80bd ccd7 583d
000000b0: ad8d 09be e9c6 eebd 3f7b c93c d654 90be
000000c0: daee d5bd a5bb db3d 465b c73d 7838 a63d
000000d0: 839a 963d 150e a73d bfef aabd 3af4 513e
000000e0: 7fdb 4b3e aed1 e63d 9d25 d6bd a17e 12be
000000f0: fa3d b3bc 55fc 4d3e 3ef4 6ebe 70b3 383e
00000100: f12f 41be ce0b 533e 63ad 673e f402 023e
00000110: 458c c2bc a1ce 3c3e ac96 a13c 9fdb 93bd
00000120: 1d67 9f3e ca21 383e 14f0 733e 939b 7dbc
00000130: c5c3 ca3d 8e9b 7b3d 6abf 6e3d 7395 003e
00000140: 7784 993d 3e44 863c b080 f6bd 7c61 583d
00000150: 8443 cabd e1a7 cc3d 1168 383e 7cc0 2dbc
00000160: 4d55 58be 63b3 36bc de01 44be 50ee 87bd
00000170: e966 f23d b76e 58bd 9e8d 6a3e 2c78 c5bd
00000180: f6fa 88be 2fec 2bbe 768c 273d 7320 69bb
00000190: b094 70bb 39b5 ed3d 923e 62be b544 32be
000001a0: 8f21 73be b3f2 0a3e 060e 93be 46d2 00be
000001b0: 4ad8 4ebc 4982 80bc 32a9 5d3e a72b ac3d
000001c0: 1241 003c 2330 e4bd 7292 9cbd f4cc cd3d
000001d0: c849 7a3d 02ba 163c 9ddb 02bd 31a1 043e
000001e0: 8656 183e f638 1f3e 9b51 543b 8e80 623e
000001f0: a56d 92be b73b 633d df8b d0bc 828d 0e3e
00000200: 31ea 35bd 1f48 f8bc 6155 893d 6939 4dbe
00000210: 8809 9dbc 1bd1 a1bc 7e3d 81bc be7e 993d
00000220: 0450 e43d 3ade 6a3e 9b82 d03d 8d70 97bd
00000230: e054 db3d 7f4f b5bd 64be a83d b99c 703d
00000240: bd46 b23d 4fbd 933d 8992 53bd 97ac d23c
00000250: f575 37be 4b4d 08be f76b 5d3d f139 21be
00000260: 93f9 03bd 5492 debd 84f8 913e f43d 873d
00000270: 8e64 70be dcdb 43bd aef8 bf3d 583a 39be
00000280: 1fbd 02be af42 983e 006b adbc 04a9 ba3d
00000290: d202 29be de98 2fbe 6497 f5bd 7c44 1ebe
000002a0: 3475 38be c49d 383e 0dbc 97bd c5fa e1bd
000002b0: 85f3 633e bc39 ef3b 6bf9 80bd 609c 1ebd
000002c0: 8298 4e3e 69f4 9a3d 060d d1bb a9ce 043e
000002d0: 4781 e5bb ef48 333e 01ea 8cbe b116 893c
000002e0: b80e 45be 89d4 2d3e 3a13 2a3e 4fce 6cbd
000002f0: 4001 1e3e d9f6 883c 72b9 4a3e 5612 25be
00000300: 3632 953e 3c17 3f3e 4e69 6c3d 9d14 ee3c
00000310: 546a b9bb 7399 583d fe06 4b3e a233 393d
00000320: b592 17be 4072 6bbe 0bd4 583d 69b2 ad3b
00000330: 9f21 903c 61a3 9dbd c97d b13c 4e5e 7a3d
00000340: 76c4 7abb 9563 53be 3443 2bbd 34f8 0e3d
00000350: 2b35 1c3d e5f5 10be ede7 993e 0a42 22bd
00000360: 2507 0bbe 0a73 20bd c8d2 06be 8c29 7c3d
00000370: 4369 d5bd 6e15 973d a747 08be 9989 d83d
00000380: 6860 ffbd 19f3 9fbd 9eee 08be 2e67 94be
00000390: 2449 6dbe 2227 053d 34b8 ecbb 3797 0a3c
000003a0: 2be8 ef3d d76b bf3d e690 af39 a388 083e
000003b0: c67d 593e 7fbb 253d afa0 3fbd 73ff 913d
0.15404028 -0.08520669 0.100557126 0.025101624 0.11678685 0.07330138 -0.06280286 -0.040310398
0.00072641077 0.12230517 0.009874908 0.017767137 0.14363225 0.06717814 0.18619947 0.052491836
0.11506421 0.15018459 -0.103416875 0.0836247 -0.16462833 0.11240062 0.16364194 -0.043823536
0.1053804 0.15391314 -0.15375842 0.15125877 -0.037425816 -0.011084607 0.08062362 -0.124311484
0.058065135 -0.001995367 0.1632943 -0.1492235 -0.12340014 -0.107995324 0.0011156958 0.0800087
-0.16135396 -0.018864227 -0.0628461 0.052940175 -0.13432951 -0.11659033 0.024594901 -0.28189725
-0.10445948 0.1072915 0.09734206 0.08116239 0.073536895 0.08156983 -0.08346509 0.20503321
0.1990795 0.11270462 -0.10456393 -0.14306118 -0.021880139 0.20115788 -0.23335359 0.180372
-0.18865944 0.20609972 0.22624736 0.12696439 -0.023748526 0.18438198 0.019725166 -0.07219624
0.31133357 0.1798164 0.23822051 -0.015478986 0.09900621 0.061427645 0.058288015 0.1255701
0.07495969 0.016389962 -0.12036264 0.052827343 -0.09876159 0.09992958 0.18008448 -0.010604974
-0.2112629 -0.011151168 -0.19141337 -0.066372514 0.11836035 -0.05283996 0.22905585 -0.096420616
-0.26753968 -0.16789316 0.04090544 -0.003557232 -0.0036709718 0.11606831 -0.22094181 -0.17409022
-0.2374327 0.13569145 -0.28721637 -0.12580213 -0.0126248095 -0.015687125 0.21646574 0.084067635
0.007828014 -0.11141994 -0.0764512 0.10048857 0.06110552 0.009199621 -0.03194772 0.12952115
0.14876756 0.15549073 0.0032397273 0.22119352 -0.28599277 0.05547687 -0.02545732 0.13921168
-0.044412795 -0.030307828 0.06705738 -0.20041431 -0.019169584 -0.01975303 -0.015776392 0.07494877
0.11148074 0.22936335 0.10181161 -0.07394514 0.10709548 -0.08853053 0.08239439 0.058743212
0.087048985 0.07213842 -0.05165342 0.025717063 -0.17916091 -0.13310735 0.05405804 -0.15744759
-0.032220434 -0.108677536 0.28509915 0.066036135 -0.23475859 -0.047817096 0.09373604 -0.18088663
-0.12767456 0.29738376 -0.021169186 0.091142684 -0.16504982 -0.17148158 -0.11991766 -0.15455812
-0.1801346 0.18028933 -0.07408915 -0.110341586 0.22260864 0.0073005836 -0.06297573 -0.03872335
0.20175365 0.07566149 -0.0063797263 0.1296946 -0.0070039365 0.1750829 -0.2752228 0.016734453
-0.19243896 0.16975607 0.16608897 -0.05781394 0.15430164 0.016719269 0.19797304 -0.16120276
0.2913987 0.18661207 0.057717614 0.029062564 -0.0056584273 0.052880716 0.19826886 0.045215257
-0.14802058 -0.22992802 0.052936595 0.005300809 0.017594157 -0.07697178 0.021666424 0.061125092
-0.0038264073 -0.20643456 -0.041812137 0.034904674 0.038136642 -0.14156301 0.30059758 -0.03961376
-0.13576944 -0.03917221 -0.13166344 0.06156306 -0.10420468 0.07377134 -0.13308583 0.1057312
-0.1246956 -0.07810039 -0.13372275 -0.2898497 -0.23172432 0.032508023 -0.007224107 0.008458904
0.117142044 0.09346741 0.0003348656 0.13333373 0.21239385 0.040462013 -0.0467841 0.07128801

bias f4 [8]
00000000: acf4 03be 9e92 67bb 4e2d 863e 543d 5f3e
00000010: 3afc 533e 8f24 a7bc ba37 bc3c 2f14 f43d
-0.12886304 -0.0035335193 0.2620644 0.21800739 0.20701686 -0.020403175 0.022975791 0.11917912

weight f4 [11, 8]
00000000: ca7c 44be f77a e93e d2c9 4f3d 5f40 b53e
00000010: 2ca5 b3ba 840d cb3e e59c 49be 0c03 593e
00000020: 138f 853e a65e 27be bf5b 183e 6f0f 64be
00000030: 9e96 08bd a8ef d4bd 1149 87be 6c47 533e
00000040: 8892 51be 0a87 cd3e 9ad9 413e 2fea ea3e
00000050: b08c 42be 3d66 803e e53d 58be d824 d03e
00000060: d504 c4be f458 1b3e dce8 92be d419 0f3e
00000070: 0d00 ebbd 9026 d8be 263e cd3e 7441 db3d
00000080: 4b3c 9ebd c1b2 65be fec1 e0bc 40be 09be
00000090: 49e2 5f3e a7fc 6d3e f31a d53e 9eb3 3abd
000000a0: 33ba 3a3e 1d5d 49be da73 64be 6f74 5dbe
000000b0: 181e f83d 917f 4fbe db86 983d 9bc1 4b3e
000000c0: 9643 81bd a70a e23e 7efe 33be 68df 003e
000000d0: 8f6a 1f3e 8255 293e f3bd 0abe 52bf c93e
000000e0: 9bf7 5b3e 0820 aabe 2f6a a03e dbb9 d6bd
000000f0: 54c4 403e 471f cdbd 0e54 bb3e 0ad7 b5be
00000100: 7050 49be 1c13 a7be dd31 be3e d2c8 58be
00000110: 1410 dabd c3b9 80be 5b76 5a3e 707b 1bbe
00000120: d9bb be3d 4c30 0d3e d5ef 823e f108 173e
00000130: f080 f73d 8326 01be b95b 8b3e db8d a1be
00000140: c2c1 72be af10 c3be 0772 e23d c1ee 863d
00000150: 3ea7 f63d 84c0 79be 0249 263e 62ff 6c3d
-0.19188228 0.45601627 0.05072958 0.35400674 -0.0013705841 0.3965875 -0.19688757 0.21192569
0.2608572 -0.163447 0.14878748 -0.22271512 -0.033346765 -0.10397273 -0.26422933 0.20632714
-0.20466053 0.4014209 0.18930665 0.45881793 -0.1899898 0.25078002 -0.21117361 0.4065311
-0.38284937 0.15170652 -0.28693283 0.13974696 -0.11474619 -0.4221692 0.40086478 0.107058436
-0.07726344 -0.2243147 -0.027436253 -0.13451481 0.21863665 0.2324091 0.41622123 -0.045581453
0.18235092 -0.19664426 -0.22309819 -0.21626447 0.12115115 -0.20263506 0.07447597 0.19898073
-0.06311719 0.44148752 -0.1757755 0.12585223 0.15567993 0.16536525 -0.13549022 0.39403778
0.21481173 -0.33227563 0.31331012 -0.10484668 0.18824893 -0.10015731 0.36587566 -0.35515624
-0.1965959 -0.32631767 0.37147418 -0.21170357 -0.10647598 -0.25141725 0.21334212 -0.15183806
0.09313173 0.13787955 0.25573602 0.14749505 0.1208514 -0.12612347 0.27218416 -0.3155354
-0.23706725 -0.38098666 0.11056905 0.065885074 0.12043618 -0.24389845 0.16238788 0.05786074

bias f4 [11]
00000000: 9704 c63d 6b4f b5be a0f7 483e 25c8 9bbc
00000010: 6387 363e 88c4 d7bc 9d5d 3f3e 9db8 a93d
00000020: 03cd af3d a38f 85be 1e5f 633e
0.09668844 -0.35412154 0.19625711 -0.019016335 0.17825083 -0.02633883 0.18688054 0.08287165
0.08584025 -0.2608615 0.22204253

weight f4 [1, 11]
00000000: fad7 663e 9bcf 8dbe 08af 543e c732 fcbc
00000010: bbae 1cbe 891d 8cbe e927 d23e c3df d5be
00000020: fc48 b1be 6e31 fabd a5e5 88be
0.22543326 -0.27697453 0.20769894 -0.030785931 -0.1530103 -0.27366284 0.41046074 -0.4177228
-0.34625995 -0.12216459 -0.26737705
